CV_VR/IoT-Robotics/xfeat_qcs6490/models/xfeat_quant_int8.tflite (tflite, 832504 bytes, 27 tensors)

tfl.pseudo_qconst27 i1 [64, 1, 1, 64]
-33 -18 -11 -11 14 -11 14 -10
12 2 23 52 -9 -10 20 2
14 -26 -2 0 15 -6 29 0
-22 29 0 -52 -39 -26 -3 21
60 42 -20 -72 -108 -89 -29 -8
42 49 25 -127 -95 -87 -43 -15
-23 15 37 16 24 -27 -34 -36
69 39 82 82 89 91 80 11
-2 -3 -1 -4 -2 -5 -12 14
5 2 -2 9 -5 -3 -1 -20
-4 -4 6 -14 5 -3 10 31
0 5 -10 11 2 73 108 117
4 -8 10 -14 12 -38 -127 -113
-2 4 2 4 -9 -14 -50 -41
-1 2 -4 0 6 4 23 17
3 -2 4 3 -5 -7 12 16
1 0 -2 -2 0 1 1 0
1 -1 2 -4 -1 0 2 -3
0 1 -3 6 -1 -1 1 -1
-1 3 3 -4 -7 9 -4 1
3 4 -15 18 0 5 0 4
2 -3 2 15 -42 40 3 -5
6 0 10 -24 -122 120 16 -21
-1 -5 19 -51 -124 127 26 -1
-17 9 -1 -12 -1 -9 16 7
8 1 22 3 -14 4 -8 2
10 -22 -46 0 6 -4 -16 7
-12 -127 -57 -36 -17 15 -8 5
-20 -103 -39 9 11 -5 10 -8
14 12 80 85 51 13 -8 2
-1 -4 46 76 30 3 2 -3
11 12 -2 42 -7 -17 9 -13
00000000: dfee f5f5 0ef5 0ef6 0c02 1734 f7f6 1402
00000010: 0ee6 fe00 0ffa 1d00 ea1d 00cc d9e6 fd15
00000020: 3c2a ecb8 94a7 e3f8 2a31 1981 a1a9 d5f1
00000030: e90f 2510 18e5 dedc 4527 5252 595b 500b
00000040: fefd fffc fefb f40e 0502 fe09 fbfd ffec
00000050: fcfc 06f2 05fd 0a1f 0005 f60b 0249 6c75
00000060: 04f8 0af2 0cda 818f fe04 0204 f7f2 ced7
00000070: ff02 fc00 0604 1711 03fe 0403 fbf9 0c10
00000080: 0100 fefe 0001 0100 01ff 02fc ff00 02fd
00000090: 0001 fd06 ffff 01ff ff03 03fc f909 fc01
000000a0: 0304 f112 0005 0004 02fd 020f d628 03fb
000000b0: 0600 0ae8 8678 10eb fffb 13cd 847f 1aff
000000c0: ef09 fff4 fff7 1007 0801 1603 f204 f802
000000d0: 0aea d200 06fc f007 f481 c7dc ef0f f805
000000e0: ec99 d909 0bfb 0af8 0e0c 5055 330d f802
000000f0: fffc 2e4c 1e03 02fd 0b0c fe2a f9ef 09f3

model/dynamic_conv2d/DynamicConv2D;model/tf.quantization.fake_quant_with_min_max_vars_per_channel/FakeQuantWithMinMaxVarsPerChannel i1 [4, 3, 3, 1]
19 102 89 -67 -81 48 86 -69
-126 85 127 -113 44 53 -79 -105
90 -85 -98 76 8 -126 49 -6
100 -41 31 41 11 78 43 25
-3 -54 -126 -28
00000000: 1366 59bd af30 56bb 8255 7f8f 2c35 b197
00000010: 5aab 9e4c 0882 31fa 64d7 1f29 0b4e 2b19
00000020: fdca 82e4

model/dynamic_conv2d_1/DynamicConv2D;model/tf.quantization.fake_quant_with_min_max_vars_per_channel_1/FakeQuantWithMinMaxVarsPerChannel i1 [24, 1, 1, 1]
126 -126 -126 126 126 126 126 -126
126 -126 -126 126 -126 -126 -126 126
-126 -126 -126 -126 -126 -126 126 -126
00000000: 7e82 827e 7e7e 7e82 7e82 827e 8282 827e
00000010: 8282 8282 8282 7e82

model/dynamic_conv2d_2/DynamicConv2D;model/tf.quantization.fake_quant_with_min_max_vars_per_channel_2/FakeQuantWithMinMaxVarsPerChannel i1 [8, 3, 3, 4]
-1 10 -20 25 38 -46 -19 40
31 -30 0 -25 40 -47 3 5
61 -59 101 49 25 -4 103 71
123 -25 8 -30 102 -126 122 22
12 -81 102 -4 -18 -9 8 -35
28 19 -11 -23 13 8 3 -22
14 9 -67 23 37 29 -126 25
21 32 -126 30 87 32 -8 -9
36 19 5 -3 29 -4 23 -48
-62 -21 15 -30 -99 31 23 88
-41 4 43 81 -109 59 -39 -51
-68 16 -107 27 -34 -59 -10 12
-20 91 -12 18 -74 92 -126 -35
-73 76 -19 31 -27 10 0 67
-51 -48 6 6 -29 -43 25 89
-95 -50 55 30 -126 -102 101 43
-66 1 101 43 -16 22 -48 -62
-51 -24 -18 -22 -30 -1 34 -8
-13 2 -6 -4 -47 3 -9 -48
-34 29 -51 -45 -99 22 -17 -22
-73 85 -66 10 -45 54 -109 -9
-112 1 5 -23 -83 72 -30 -41
-30 44 -127 38 45 -9 30 -11
-15 42 62 16 -89 -16 54 -56
-9 3 12 26 29 12 105 -75
33 58 108 -22 -58 -42 -70 8
-2 126 22 -72 64 108 81 -55
7 6 -11 -9 16 13 -4 -42
0 -4 -6 -4 38 5 7 -59
63 -8 8 13 35 -51 8 -55
-32 25 -78 105 -12 31 -117 126
-42 16 -56 112 -111 -25 54 -12
00000000: ff0a ec19 26d2 ed28 1fe2 00e7 28d1 0305
00000010: 3dc5 6531 19fc 6747 7be7 08e2 6682 7a16
00000020: 0caf 66fc eef7 08dd 1c13 f5e9 0d08 03ea
00000030: 0e09 bd17 251d 8219 1520 821e 5720 f8f7
00000040: 2413 05fd 1dfc 17d0 c2eb 0fe2 9d1f 1758
00000050: d704 2b51 933b d9cd bc10 951b dec5 f60c
00000060: ec5b f412 b65c 82dd b74c ed1f e50a 0043
00000070: cdd0 0606 e3d5 1959 a1ce 371e 829a 652b
00000080: be01 652b f016 d0c2 cde8 eeea e2ff 22f8
00000090: f302 fafc d103 f7d0 de1d cdd3 9d16 efea
000000a0: b755 be0a d336 93f7 9001 05e9 ad48 e2d7
000000b0: e22c 8126 2df7 1ef5 f12a 3e10 a7f0 36c8
000000c0: f703 0c1a 1d0c 69b5 213a 6cea c6d6 ba08
000000d0: fe7e 16b8 406c 51c9 0706 f5f7 100d fcd6
000000e0: 00fc fafc 2605 07c5 3ff8 080d 23cd 08c9
000000f0: e019 b269 f41f 8b7e d610 c870 91e7 36f4

model/dynamic_conv2d_3/DynamicConv2D;model/tf.quantization.fake_quant_with_min_max_vars_per_channel_3/FakeQuantWithMinMaxVarsPerChannel i1 [8, 3, 3, 8]
-41 13 48 -11 56 -21 -99 13
-39 15 -20 23 80 0 -127 -44
14 26 0 7 95 -84 -106 18
56 25 -13 -42 65 -39 39 -38
41 34 41 35 45 -90 -9 -27
57 51 5 4 25 -52 1 -23
-73 -12 58 42 0 -22 -16 37
-91 -72 -22 73 32 20 33 37
-33 -46 32 72 -46 53 14 108
26 -9 -12 1 -15 -20 23 18
9 -29 4 27 -20 1 -22 32
7 -28 -17 18 7 -4 20 22
10 -19 -28 55 -7 -40 0 -23
-25 37 -8 -5 31 -8 24 40
-47 42 24 -6 36 -27 36 -78
13 -12 -37 2 -63 -13 10 0
-15 48 -22 -42 -26 -4 9 -26
-28 64 -14 -37 31 -52 8 -126
38 -21 18 17 25 -47 -36 35
33 -33 28 -28 36 -26 -41 4
22 16 -5 -24 73 -37 -49 -12
8 33 51 41 78 -89 -61 19
21 25 80 -15 127 -47 -35 -5
59 5 118 -6 45 -77 -70 -9
12 -26 53 -13 -15 -54 -11 35
-12 -63 96 -26 66 -19 -17 47
4 -22 106 -62 87 -38 -9 45
57 0 -5 -9 -52 -19 20 -1
10 -8 0 -21 -23 30 20 34
-16 24 27 13 5 27 42 -11
45 48 20 4 -126 22 21 -33
77 6 -74 -79 -91 9 -14 4
00000000: d70d 30f5 38eb 9d0d d90f ec17 5000 81d4
00000010: 0e1a 0007 5fac 9612 3819 f3d6 41d9 27da
00000020: 2922 2923 2da6 f7e5 3933 0504 19cc 01e9
00000030: b7f4 3a2a 00ea f025 a5b8 ea49 2014 2125
00000040: dfd2 2048 d235 0e6c 1af7 f401 f1ec 1712
00000050: 09e3 041b ec01 ea20 07e4 ef12 07fc 1416
00000060: 0aed e437 f9d8 00e9 e725 f8fb 1ff8 1828
00000070: d12a 18fa 24e5 24b2 0df4 db02 c1f3 0a00
00000080: f130 ead6 e6fc 09e6 e440 f2db 1fcc 0882
00000090: 26eb 1211 19d1 dc23 21df 1ce4 24e6 d704
000000a0: 1610 fbe8 49db cff4 0821 3329 4ea7 c313
000000b0: 1519 50f1 7fd1 ddfb 3b05 76fa 2db3 baf7
000000c0: 0ce6 35f3 f1ca f523 f4c1 60e6 42ed ef2f
000000d0: 04ea 6ac2 57da f72d 3900 fbf7 cced 14ff
000000e0: 0af8 00eb e91e 1422 f018 1b0d 051b 2af5
000000f0: 2d30 1404 8216 15df 4d06 b6b1 a509 f204

model/dynamic_conv2d_4/DynamicConv2D;model/tf.quantization.fake_quant_with_min_max_vars_per_channel_4/FakeQuantWithMinMaxVarsPerChannel i1 [24, 3, 3, 8]
-95 53 4 24 0 -60 5 14
-70 15 10 -16 15 9 -33 24
-63 -107 -26 16 57 41 -18 -13
-47 53 13 -17 -88 -5 11 39
-28 41 22 -28 -36 0 -3 127
-64 -26 40 -61 13 39 -23 68
20 5 21 -8 -4 1 3 -16
-29 7 52 -28 7 14 -22 45
-19 -22 -10 -64 17 41 1 11
20 -75 1 26 -1 16 -27 21
66 -104 26 -34 -41 -2 -69 2
64 -102 -9 -8 -2 30 -71 -2
15 -69 74 11 -28 76 -66 13
24 -78 59 -33 -54 113 -89 -10
-10 -62 127 45 8 49 -128 -23
-63 -44 4 -13 18 95 3 39
-56 -92 -65 -99 26 88 -32 -5
-67 -27 -24 -23 28 12 -17 61
13 -60 12 49 -10 32 12 -50
0 -109 75 -80 28 99 90 46
97 69 52 58 -89 -80 -43 -16
41 -30 -27 -111 0 31 10 -7
20 -22 14 -127 37 -8 59 -30
75 79 35 -6 10 -70 2 48
60 46 -43 6 15 17 8 4
87 -86 7 -55 -58 19 93 2
81 63 55 89 -100 -114 -121 -52
-27 22 -127 58 17 -19 -11 -45
-39 54 -94 41 37 -69 24 -25
-5 21 -88 -12 38 -39 6 14
-42 42 -66 53 6 -50 38 -36
-68 34 -110 63 7 -67 30 -13
00000000: a135 0418 00c4 050e ba0f 0af0 0f09 df18
00000010: c195 e610 3929 eef3 d135 0def a8fb 0b27
00000020: e429 16e4 dc00 fd7f c0e6 28c3 0d27 e944
00000030: 1405 15f8 fc01 03f0 e307 34e4 070e ea2d
00000040: edea f6c0 1129 010b 14b5 011a ff10 e515
00000050: 4298 1ade d7fe bb02 409a f7f8 fe1e b9fe
00000060: 0fbb 4a0b e44c be0d 18b2 3bdf ca71 a7f6
00000070: f6c2 7f2d 0831 80e9 c1d4 04f3 125f 0327
00000080: c8a4 bf9d 1a58 e0fb bde5 e8e9 1c0c ef3d
00000090: 0dc4 0c31 f620 0cce 0093 4bb0 1c63 5a2e
000000a0: 6145 343a a7b0 d5f0 29e2 e591 001f 0af9
000000b0: 14ea 0e81 25f8 3be2 4b4f 23fa 0aba 0230
000000c0: 3c2e d506 0f11 0804 57aa 07c9 c613 5d02
000000d0: 513f 3759 9c8e 87cc e516 813a 11ed f5d3
000000e0: d936 a229 25bb 18e7 fb15 a8f4 26d9 060e
000000f0: d62a be35 06ce 26dc bc22 923f 07bd 1ef3

model/dynamic_conv2d_6/DynamicConv2D;model/tf.quantization.fake_quant_with_min_max_vars_per_channel_5/FakeQuantWithMinMaxVarsPerChannel i1 [24, 3, 3, 24]
-16 40 -8 8 17 -22 -30 23
-38 15 28 -30 40 22 32 13
20 26 52 -28 54 5 -12 -1
-6 38 23 41 -16 -1 15 -15
-42 -54 -23 63 -36 -71 -12 -35
-21 -37 -19 -34 -48 0 -12 -9
-12 6 -24 69 -11 60 70 12
-29 -36 -13 86 -36 -84 67 -22
10 -41 10 -25 27 19 3 -81
9 7 -15 -99 -5 -57 -69 -31
-5 17 -29 -81 75 126 -1 -31
-29 48 -10 96 -25 -6 -1 4
0 10 25 1 -32 4 23 -31
-41 -64 35 4 -43 25 15 -72
-28 40 -107 31 -108 -48 17 -15
45 -53 -15 3 11 57 55 -50
47 -24 -64 62 23 -40 18 52
-32 -34 -90 -7 32 -52 31 -56
-46 -12 -5 -10 15 0 -43 21
2 17 -18 -43 -14 46 12 24
29 -27 14 17 34 13 -11 -14
-30 45 30 -48 -21 -14 -66 3
-40 12 5 -37 28 13 18 -68
-17 5 62 30 -35 -1 -28 16
-17 -6 21 2 13 42 10 15
21 44 -31 -10 -30 14 -18 49
30 -25 -23 -31 49 28 21 31
34 -3 -9 0 -2 16 31 -7
-7 -5 -28 -30 9 29 -23 2
10 -27 4 4 0 9 30 -8
4 20 -3 17 -4 -10 9 -4
-21 -13 -11 27 -40 -3 -32 16
00000000: f028 f808 11ea e217 da0f 1ce2 2816 200d
00000010: 141a 34e4 3605 f4ff fa26 1729 f0ff 0ff1
00000020: d6ca e93f dcb9 f4dd ebdb edde d000 f4f7
00000030: f406 e845 f53c 460c e3dc f356 dcac 43ea
00000040: 0ad7 0ae7 1b13 03af 0907 f19d fbc7 bbe1
00000050: fb11 e3af 4b7e ffe1 e330 f660 e7fa ff04
00000060: 000a 1901 e004 17e1 d7c0 2304 d519 0fb8
00000070: e428 951f 94d0 11f1 2dcb f103 0b39 37ce
00000080: 2fe8 c03e 17d8 1234 e0de a6f9 20cc 1fc8
00000090: d2f4 fbf6 0f00 d515 0211 eed5 f22e 0c18
000000a0: 1de5 0e11 220d f5f2 e22d 1ed0 ebf2 be03
000000b0: d80c 05db 1c0d 12bc ef05 3e1e ddff e410
000000c0: effa 1502 0d2a 0a0f 152c e1f6 e20e ee31
000000d0: 1ee7 e9e1 311c 151f 22fd f700 fe10 1ff9
000000e0: f9fb e4e2 091d e902 0ae5 0404 0009 1ef8
000000f0: 0414 fd11 fcf6 09fc ebf3 f51b d8fd e010

model/dynamic_conv2d_8/DynamicConv2D;model/tf.quantization.fake_quant_with_min_max_vars_per_channel_7/FakeQuantWithMinMaxVarsPerChannel i1 [24, 3, 3, 24]
-30 2 -3 11 9 -9 -12 10
-12 -39 -26 -30 20 -5 -57 28
33 27 6 0 21 -4 -23 3
-15 12 -27 12 18 11 11 51
17 11 -14 0 28 -35 41 16
-19 12 -54 12 3 -76 -31 -16
-8 22 19 10 13 -11 -21 10
10 -31 -24 1 44 -12 -41 13
31 -25 -30 -2 -20 -9 -32 -7
-35 -1 -31 -3 -19 5 5 -47
5 -81 8 -9 0 18 38 -19
-10 41 -55 4 2 -37 -6 21
-10 4 -8 -49 -18 2 -10 -36
36 -100 5 22 -54 42 126 13
-92 48 -123 -6 -2 -49 -52 -17
-4 4 14 -41 1 -1 -9 -14
0 -38 -15 41 -47 14 -22 -2
23 -6 -53 4 29 -37 -8 15
5 3 -25 -4 23 8 38 2
22 -53 -9 25 1 -14 11 -19
-14 23 -26 16 21 19 -2 12
18 -5 -9 2 -18 -15 61 -1
51 -90 21 17 28 78 46 -5
-29 -9 -37 16 -16 79 -32 -8
-8 4 9 -3 17 21 30 22
44 -22 -3 -21 25 40 -34 -4
52 -22 -17 15 -35 29 13 8
-42 6 -30 -17 11 -39 26 -12
10 6 0 31 -22 -53 -31 -21
-2 -22 -19 9 12 12 -5 -4
-38 -6 -19 6 -4 -8 26 11
29 1 10 7 3 -1 -5 19
00000000: e202 fd0b 09f7 f40a f4d9 e6e2 14fb c71c
00000010: 211b 0600 15fc e903 f10c e50c 120b 0b33
00000020: 110b f200 1cdd 2910 ed0c ca0c 03b4 e1f0
00000030: f816 130a 0df5 eb0a 0ae1 e801 2cf4 d70d
00000040: 1fe7 e2fe ecf7 e0f9 ddff e1fd ed05 05d1
00000050: 05af 08f7 0012 26ed f629 c904 02db fa15
00000060: f604 f8cf ee02 f6dc 249c 0516 ca2a 7e0d
00000070: a430 85fa fecf ccef fc04 0ed7 01ff f7f2
00000080: 00da f129 d10e eafe 17fa cb04 1ddb f80f
00000090: 0503 e7fc 1708 2602 16cb f719 01f2 0bed
000000a0: f217 e610 1513 fe0c 12fb f702 eef1 3dff
000000b0: 33a6 1511 1c4e 2efb e3f7 db10 f04f e0f8
000000c0: f804 09fd 1115 1e16 2cea fdeb 1928 defc
000000d0: 34ea ef0f dd1d 0d08 d606 e2ef 0bd9 1af4
000000e0: 0a06 001f eacb e1eb feea ed09 0c0c fbfc
000000f0: dafa ed06 fcf8 1a0b 1d01 0a07 03ff fb13

model/dynamic_conv2d_10/DynamicConv2D;model/tf.quantization.fake_quant_with_min_max_vars_per_channel_9/FakeQuantWithMinMaxVarsPerChannel i1 [64, 3, 3, 24]
14 -3 -27 -5 -27 -2 -68 10
5 10 6 -26 1 -6 -5 25
-24 -9 -5 12 -2 -8 -16 8
24 7 -20 -7 -26 6 -67 5
6 9 12 -23 -4 0 -4 1
-14 -7 -21 -12 -8 -15 -24 3
21 10 -20 -7 -27 2 -53 -6
13 -6 9 -20 -2 -5 -8 16
-9 -8 1 1 -14 0 -26 14
-25 40 27 1 9 20 124 -10
-22 -6 1 28 -11 6 14 -26
-6 18 -1 -6 3 1 19 -16
-17 21 30 -4 15 28 124 3
-9 -16 -6 25 -11 9 6 -24
-9 -3 9 -2 15 3 2 -10
-15 50 23 5 21 19 126 2
-12 -13 8 30 -6 -10 5 -9
-5 2 -8 -12 11 -4 10 -6
-13 24 6 4 6 -13 -55 -4
24 9 13 -8 4 -2 -4 -12
-8 38 -19 12 3 12 -16 2
-12 25 0 6 4 -17 -54 -17
15 6 16 -8 5 -6 -10 -16
-9 31 -24 9 -5 -4 -3 -10
-21 23 -1 -6 -12 -16 -60 -5
12 -3 5 -17 6 5 0 5
-11 28 -7 16 -2 3 -6 -6
3 -16 20 -8 13 16 7 -8
-115 -41 -3 -41 8 -9 7 4
-2 -25 -3 27 -19 8 -36 -23
-22 -25 -3 -44 14 28 5 19
-90 -28 2 -11 19 -13 33 27
00000000: 0efd e5fb e5fe bc0a 050a 06e6 01fa fb19
00000010: e8f7 fb0c fef8 f008 1807 ecf9 e606 bd05
00000020: 0609 0ce9 fc00 fc01 f2f9 ebf4 f8f1 e803
00000030: 150a ecf9 e502 cbfa 0dfa 09ec fefb f810
00000040: f7f8 0101 f200 e60e e728 1b01 0914 7cf6
00000050: eafa 011c f506 0ee6 fa12 fffa 0301 13f0
00000060: ef15 1efc 0f1c 7c03 f7f0 fa19 f509 06e8
00000070: f7fd 09fe 0f03 02f6 f132 1705 1513 7e02
00000080: f4f3 081e faf6 05f7 fb02 f8f4 0bfc 0afa
00000090: f318 0604 06f3 c9fc 1809 0df8 04fe fcf4
000000a0: f826 ed0c 030c f002 f419 0006 04ef caef
000000b0: 0f06 10f8 05fa f6f0 f71f e809 fbfc fdf6
000000c0: eb17 fffa f4f0 c4fb 0cfd 05ef 0605 0005
000000d0: f51c f910 fe03 fafa 03f0 14f8 0d10 07f8
000000e0: 8dd7 fdd7 08f7 0704 fee7 fd1b ed08 dce9
000000f0: eae7 fdd4 0e1c 0513 a6e4 02f5 13f3 211b

model/dynamic_conv2d_12/DynamicConv2D;model/tf.quantization.fake_quant_with_min_max_vars_per_channel_11/FakeQuantWithMinMaxVarsPerChannel i1 [64, 3, 3, 64]
-35 41 10 24 7 19 31 -108
9 15 3 -38 -3 23 5 17
8 2 -23 3 -1 3 -25 26
61 37 47 -13 -11 43 14 -3
84 66 34 -19 -9 15 30 14
-25 20 34 -45 19 -77 -15 -7
36 -20 33 -13 -1 -50 -17 -46
-10 30 37 29 43 6 -6 -50
-40 -13 18 -29 -9 41 25 -115
-40 -17 30 -28 35 57 -7 7
-25 -12 -19 -17 -36 -10 6 -15
-27 58 91 -5 40 -7 -20 15
-1 8 60 56 -3 42 -4 -54
-13 -10 -3 27 -7 -69 38 -10
-19 1 9 26 23 -33 9 -35
-23 11 -71 77 45 -45 25 50
-47 9 20 20 -3 4 23 -113
-18 -7 -25 0 18 -18 -12 7
-3 15 -4 -32 21 -8 20 -9
1 -8 35 -4 17 2 5 -1
7 -18 15 17 -9 36 5 -15
-47 16 10 41 27 -74 -13 -13
13 -9 10 -28 42 -46 14 -14
6 31 -12 31 23 -17 2 1
-88 -26 -3 6 -8 -4 -64 -69
3 -15 -13 -26 21 12 20 17
-3 7 -7 57 9 -19 3 -7
18 41 38 -17 18 12 10 5
-34 87 12 -24 -5 -41 9 -14
-27 -31 -5 -5 22 -31 3 -42
-29 -44 13 16 -39 22 -39 -18
-26 50 33 62 53 2 21 -37
00000000: dd29 0a18 0713 1f94 090f 03da fd17 0511
00000010: 0802 e903 ff03 e71a 3d25 2ff3 f52b 0efd
00000020: 5442 22ed f70f 1e0e e714 22d3 13b3 f1f9
00000030: 24ec 21f3 ffce efd2 f61e 251d 2b06 face
00000040: d8f3 12e3 f729 198d d8ef 1ee4 2339 f907
00000050: e7f4 edef dcf6 06f1 e53a 5bfb 28f9 ec0f
00000060: ff08 3c38 fd2a fcca f3f6 fd1b f9bb 26f6
00000070: ed01 091a 17df 09dd e90b b94d 2dd3 1932
00000080: d109 1414 fd04 178f eef9 e700 12ee f407
00000090: fd0f fce0 15f8 14f7 01f8 23fc 1102 05ff
000000a0: 07ee 0f11 f724 05f1 d110 0a29 1bb6 f3f3
000000b0: 0df7 0ae4 2ad2 0ef2 061f f41f 17ef 0201
000000c0: a8e6 fd06 f8fc c0bb 03f1 f3e6 150c 1411
000000d0: fd07 f939 09ed 03f9 1229 26ef 120c 0a05
000000e0: de57 0ce8 fbd7 09f2 e5e1 fbfb 16e1 03d6
000000f0: e3d4 0d10 d916 d9ee e632 213e 3502 15db

model/dynamic_conv2d_13/DynamicConv2D;model/tf.quantization.fake_quant_with_min_max_vars_per_channel_12/FakeQuantWithMinMaxVarsPerChannel i1 [64, 1, 1, 64]
-15 29 5 -3 1 1 -8 -3
-7 -20 -23 -24 -14 -14 12 -3
52 -20 -2 -21 -6 8 -12 7
-2 -2 7 -2 -126 37 -4 -12
18 13 3 35 6 -3 -5 -1
3 -1 -19 7 54 -30 -12 1
-9 14 -9 1 44 9 -1 -29
15 5 5 -42 -4 -24 12 -7
-2 -11 5 -5 -34 21 22 -19
-11 1 -5 0 8 -7 -1 16
-5 7 -5 2 -13 4 4 12
10 -4 -10 -15 9 16 -127 -10
9 0 -13 -10 2 -11 -10 -15
-5 -14 12 -15 17 -9 -8 -5
-16 17 7 -14 9 3 31 -28
-10 33 -11 0 4 13 0 -3
-51 -57 -16 17 -5 54 5 -21
29 -13 0 20 3 -10 50 9
-46 55 -54 62 -8 -2 19 -78
-16 7 32 101 56 -26 5 -12
49 -23 -15 -4 -95 1 43 -40
-5 32 117 -14 -118 54 27 -44
-8 6 -40 -2 5 33 -11 7
-87 17 -30 59 33 28 -126 -21
63 49 -26 -28 -7 -25 46 -25
-62 -12 13 -105 14 -8 116 -50
5 19 77 10 -7 -53 17 29
19 -21 -37 -46 -19 3 -20 23
36 -19 44 2 126 -106 -3 41
73 -95 -20 51 -10 5 -5 23
-12 6 19 -17 -45 74 -5 -7
-4 -22 -4 6 -72 8 7 32
00000000: f11d 05fd 0101 f8fd f9ec e9e8 f2f2 0cfd
00000010: 34ec feeb fa08 f407 fefe 07fe 8225 fcf4
00000020: 120d 0323 06fd fbff 03ff ed07 36e2 f401
00000030: f70e f701 2c09 ffe3 0f05 05d6 fce8 0cf9
00000040: fef5 05fb de15 16ed f501 fb00 08f9 ff10
00000050: fb07 fb02 f304 040c 0afc f6f1 0910 81f6
00000060: 0900 f3f6 02f5 f6f1 fbf2 0cf1 11f7 f8fb
00000070: f011 07f2 0903 1fe4 f621 f500 040d 00fd
00000080: cdc7 f011 fb36 05eb 1df3 0014 03f6 3209
00000090: d237 ca3e f8fe 13b2 f007 2065 38e6 05f4
000000a0: 31e9 f1fc a101 2bd8 fb20 75f2 8a36 1bd4
000000b0: f806 d8fe 0521 f507 a911 e23b 211c 82eb
000000c0: 3f31 e6e4 f9e7 2ee7 c2f4 0d97 0ef8 74ce
000000d0: 0513 4d0a f9cb 111d 13eb dbd2 ed03 ec17
000000e0: 24ed 2c02 7e96 fd29 49a1 ec33 f605 fb17
000000f0: f406 13ef d34a fbf9 fcea fc06 b808 0720

model/dynamic_conv2d_14/DynamicConv2D;model/tf.quantization.fake_quant_with_min_max_vars_per_channel_13/FakeQuantWithMinMaxVarsPerChannel i1 [64, 3, 3, 64]
22 -21 54 23 -34 -28 33 -19
-2 -32 9 -79 3 -65 -82 -29
-64 -63 39 -40 67 127 -10 14
-6 -6 -75 20 -75 -14 8 68
30 43 -19 -54 -3 -12 -35 38
18 -2 -69 16 -1 56 -103 -20
9 -41 -46 -20 21 -30 -2 31
-42 -18 -52 35 -14 -30 -41 77
52 -16 21 8 -19 -60 19 -40
-37 17 -15 -82 10 -26 -22 -4
-56 -51 15 -11 54 72 -45 57
30 14 -46 65 -39 -9 14 8
33 12 -69 -88 -5 -23 3 65
-37 27 -53 13 47 24 -107 -23
-51 -91 -30 -49 39 -81 -19 7
-8 -1 20 29 -7 13 -20 36
44 12 -3 -20 -2 -66 -20 -3
-34 -41 -2 -94 -18 -15 -7 26
-24 -29 -9 -17 23 45 -81 38
24 64 2 75 18 2 55 -25
45 -7 -47 -17 9 2 -15 59
-30 3 18 -7 52 -52 -60 -16
36 -72 6 -16 26 -86 -8 8
41 31 4 13 1 9 28 20
13 -36 62 20 -51 -44 35 -18
3 -16 20 -24 -12 -73 -74 9
-64 -42 16 -12 71 93 -65 10
16 -49 -53 26 -33 -1 11 40
43 42 -20 -82 -10 -53 -17 36
24 8 -44 22 4 97 -116 -3
-35 -60 -25 -15 27 -68 -2 69
-59 -17 -1 33 41 -26 -47 52
00000000: 16eb 3617 dee4 21ed fee0 09b1 03bf aee3
00000010: c0c1 27d8 437f f60e fafa b514 b5f2 0844
00000020: 1e2b edca fdf4 dd26 12fe bb10 ff38 99ec
00000030: 09d7 d2ec 15e2 fe1f d6ee cc23 f2e2 d74d
00000040: 34f0 1508 edc4 13d8 db11 f1ae 0ae6 eafc
00000050: c8cd 0ff5 3648 d339 1e0e d241 d9f7 0e08
00000060: 210c bba8 fbe9 0341 db1b cb0d 2f18 95e9
00000070: cda5 e2cf 27af ed07 f8ff 141d f90d ec24
00000080: 2c0c fdec febe ecfd ded7 fea2 eef1 f91a
00000090: e8e3 f7ef 172d af26 1840 024b 1202 37e7
000000a0: 2df9 d1ef 0902 f13b e203 12f9 34cc c4f0
000000b0: 24b8 06f0 1aaa f808 291f 040d 0109 1c14
000000c0: 0ddc 3e14 cdd4 23ee 03f0 14e8 f4b7 b609
000000d0: c0d6 10f4 475d bf0a 10cf cb1a dfff 0b28
000000e0: 2b2a ecae f6cb ef24 1808 d416 0461 8cfd
000000f0: ddc4 e7f1 1bbc fe45 c5ef ff21 29e6 d134

model/dynamic_conv2d_15/DynamicConv2D;model/tf.quantization.fake_quant_with_min_max_vars_per_channel_14/FakeQuantWithMinMaxVarsPerChannel i1 [64, 3, 3, 64]
-16 9 11 -21 -41 3 7 47
-28 6 -8 20 22 14 55 -27
-14 2 6 -11 11 19 8 -7
11 11 -28 13 -5 9 -9 -13
-1 -38 3 -22 -8 20 21 7
-29 -15 -25 4 -3 13 8 27
-22 -8 -5 0 10 16 20 7
-1 -17 19 -10 -15 -12 -24 -4
-23 -21 5 4 -45 -15 20 -3
11 -10 -49 -10 3 3 15 20
-12 -1 -16 -13 -15 -37 -26 -3
27 14 -31 -27 16 -4 64 4
-24 -65 -42 -12 4 12 14 -42
1 20 -27 14 -7 -51 10 -21
5 8 22 6 -13 17 21 30
-2 -17 2 -24 -16 -22 -14 35
-20 -27 -1 20 32 -13 54 10
-11 9 -6 -31 -47 -5 2 -16
4 1 1 5 -23 15 10 8
-14 25 -7 17 -13 1 17 -19
-24 -48 -8 -5 -16 14 -8 -9
4 -8 7 0 -9 -3 -3 -11
-28 -3 3 13 27 27 10 2
-3 -7 -7 -34 -19 18 -6 22
0 16 8 5 -40 -25 26 14
0 7 -25 20 -10 4 -2 -14
-12 3 -11 -8 15 25 -13 7
-23 18 -1 -28 -53 -5 0 0
-47 -47 -6 13 4 38 21 -12
-6 -2 -16 -23 -11 4 29 -17
-26 6 -30 -6 12 20 15 17
-6 4 20 -25 -22 -3 18 -4
00000000: f009 0beb d703 072f e406 f814 160e 37e5
00000010: f202 06f5 0b13 08f9 0b0b e40d fb09 f7f3
00000020: ffda 03ea f814 1507 e3f1 e704 fd0d 081b
00000030: eaf8 fb00 0a10 1407 ffef 13f6 f1f4 e8fc
00000040: e9eb 0504 d3f1 14fd 0bf6 cff6 0303 0f14
00000050: f4ff f0f3 f1db e6fd 1b0e e1e5 10fc 4004
00000060: e8bf d6f4 040c 0ed6 0114 e50e f9cd 0aeb
00000070: 0508 1606 f311 151e feef 02e8 f0ea f223
00000080: ece5 ff14 20f3 360a f509 fae1 d1fb 02f0
00000090: 0401 0105 e90f 0a08 f219 f911 f301 11ed
000000a0: e8d0 f8fb f00e f8f7 04f8 0700 f7fd fdf5
000000b0: e4fd 030d 1b1b 0a02 fdf9 f9de ed12 fa16
000000c0: 0010 0805 d8e7 1a0e 0007 e714 f604 fef2
000000d0: f403 f5f8 0f19 f307 e912 ffe4 cbfb 0000
000000e0: d1d1 fa0d 0426 15f4 fafe f0e9 f504 1def
000000f0: e606 e2fa 0c14 0f11 fa04 14e7 eafd 12fc

model/dynamic_conv2d_16/DynamicConv2D;model/tf.quantization.fake_quant_with_min_max_vars_per_channel_15/FakeQuantWithMinMaxVarsPerChannel i1 [64, 3, 3, 64]
-9 -25 7 13 3 4 -26 3
5 -29 -6 -14 -11 -5 41 8
23 -2 -29 0 -3 23 15 7
6 3 -24 6 -5 -38 15 6
-18 -12 8 -3 10 20 38 20
-3 10 -18 -19 -22 15 -14 -4
-35 20 1 18 -14 11 -41 -15
-6 9 10 3 15 21 -17 -16
19 -18 7 21 -29 1 2 -9
-23 -28 -2 -16 13 4 -9 20
-3 -5 19 23 -75 7 -19 -8
19 -4 3 0 -9 -9 20 -21
-8 -15 12 9 13 18 24 10
-31 0 0 25 -5 52 24 -12
-25 3 19 16 -9 15 -36 -29
27 -21 13 27 3 -20 23 0
-6 -25 22 1 -4 2 6 26
-23 -12 3 22 2 26 9 -7
5 -29 -8 4 18 -14 32 2
-27 17 11 -27 -5 -1 10 -28
-5 10 -30 0 37 9 -22 39
10 -5 -23 9 8 14 17 -17
-28 -23 1 19 9 -6 -33 -11
-14 -21 -16 33 23 -21 -3 3
4 -15 -18 25 5 -15 -13 -9
-10 -5 -11 4 3 -16 15 -11
10 18 -34 -8 4 -5 -13 -1
-7 7 -27 2 -13 -22 9 6
28 -19 -13 63 -24 21 -23 12
-32 -31 -2 -10 5 13 -3 -13
-36 2 -15 -43 -6 -74 18 20
13 -4 16 -2 10 23 22 -12
00000000: f7e7 070d 0304 e603 05e3 faf2 f5fb 2908
00000010: 17fe e300 fd17 0f07 0603 e806 fbda 0f06
00000020: eef4 08fd 0a14 2614 fd0a eeed ea0f f2fc
00000030: dd14 0112 f20b d7f1 fa09 0a03 0f15 eff0
00000040: 13ee 0715 e301 02f7 e9e4 fef0 0d04 f714
00000050: fdfb 1317 b507 edf8 13fc 0300 f7f7 14eb
00000060: f8f1 0c09 0d12 180a e100 0019 fb34 18f4
00000070: e703 1310 f70f dce3 1beb 0d1b 03ec 1700
00000080: fae7 1601 fc02 061a e9f4 0316 021a 09f9
00000090: 05e3 f804 12f2 2002 e511 0be5 fbff 0ae4
000000a0: fb0a e200 2509 ea27 0afb e909 080e 11ef
000000b0: e4e9 0113 09fa dff5 f2eb f021 17eb fd03
000000c0: 04f1 ee19 05f1 f3f7 f6fb f504 03f0 0ff5
000000d0: 0a12 def8 04fb f3ff f907 e502 f3ea 0906
000000e0: 1ced f33f e815 e90c e0e1 fef6 050d fdf3
000000f0: dc02 f1d5 fab6 1214 0dfc 10fe 0a17 16f4

model/dynamic_conv2d_17/DynamicConv2D;model/tf.quantization.fake_quant_with_min_max_vars_per_channel_16/FakeQuantWithMinMaxVarsPerChannel i1 [128, 3, 3, 64]
72 -19 -49 -34 -24 -7 -18 9
-26 4 -11 -22 -42 28 -30 0
25 12 -2 -28 -7 -18 -5 10
-17 -53 -3 -37 -23 19 61 -39
15 -13 16 23 44 -20 -21 5
-24 33 43 0 -12 -19 -20 -15
18 -12 -54 -23 -41 26 -16 19
7 -21 -13 86 25 17 -46 12
35 -12 -61 -1 -24 -10 -37 23
-31 -12 10 5 -63 36 -26 24
23 -7 -21 40 -7 -53 5 -6
-46 -71 19 5 -69 9 60 -28
58 15 26 13 32 6 -23 8
-36 46 27 37 3 -40 -38 -24
-13 -6 -80 -6 -31 -2 -6 -37
-45 -33 -4 28 -32 0 -55 13
39 4 -121 19 6 12 -53 -8
-54 -32 52 34 -122 20 -12 43
33 -16 -11 89 -50 -101 5 76
-41 -66 -25 5 21 -58 65 0
25 -8 45 -9 -10 39 0 34
-40 11 -6 83 109 -14 -35 -48
-19 -51 -64 32 19 19 -31 7
-63 -9 32 -50 -49 11 -2 30
19 1 -32 -24 15 -39 16 22
-8 -13 -36 -34 -21 21 -24 -3
-11 -20 -5 -25 -14 -26 -12 36
-8 -7 -1 -19 -7 28 27 -40
-11 -1 -5 16 -7 -38 18 5
-9 67 -9 -22 5 2 38 -42
-8 -24 -32 -21 -38 12 -38 5
-21 -36 -22 40 20 61 28 15
00000000: 48ed cfde e8f9 ee09 e604 f5ea d61c e200
00000010: 190c fee4 f9ee fb0a efcb fddb e913 3dd9
00000020: 0ff3 1017 2cec eb05 e821 2b00 f4ed ecf1
00000030: 12f4 cae9 d71a f013 07eb f356 1911 d20c
00000040: 23f4 c3ff e8f6 db17 e1f4 0a05 c124 e618
00000050: 17f9 eb28 f9cb 05fa d2b9 1305 bb09 3ce4
00000060: 3a0f 1a0d 2006 e908 dc2e 1b25 03d8 dae8
00000070: f3fa b0fa e1fe fadb d3df fc1c e000 c90d
00000080: 2704 8713 060c cbf8 cae0 3422 8614 f42b
00000090: 21f0 f559 ce9b 054c d7be e705 15c6 4100
000000a0: 19f8 2df7 f627 0022 d80b fa53 6df2 ddd0
000000b0: edcd c020 1313 e107 c1f7 20ce cf0b fe1e
000000c0: 1301 e0e8 0fd9 1016 f8f3 dcde eb15 e8fd
000000d0: f5ec fbe7 f2e6 f424 f8f9 ffed f91c 1bd8
000000e0: f5ff fb10 f9da 1205 f743 f7ea 0502 26d6
000000f0: f8e8 e0eb da0c da05 ebdc ea28 143d 1c0f

model/dynamic_conv2d_18/DynamicConv2D;model/tf.quantization.fake_quant_with_min_max_vars_per_channel_17/FakeQuantWithMinMaxVarsPerChannel i1 [128, 3, 3, 128]
-34 -20 -9 6 -23 -95 -32 -128
-46 23 54 -10 18 -34 79 25
-88 -1 -24 9 -22 -24 -10 -49
-25 9 -97 25 8 40 66 38
-19 -23 57 37 -3 -3 63 29
-30 14 -27 -1 -3 6 30 14
34 39 -41 6 -27 61 7 -40
-4 0 -55 -21 43 33 -41 -63
-41 16 19 4 23 -14 -1 42
-59 -15 -30 9 -7 35 18 -103
67 -22 41 47 32 15 35 -37
-64 18 -12 -28 19 41 -20 -14
38 -40 24 -10 -8 -42 55 -38
20 -23 -3 59 -22 -60 -19 -7
-103 -12 50 -4 37 -22 56 51
38 44 -44 -71 -4 -22 -14 -20
2 33 -13 -37 3 -15 12 16
-18 31 12 -20 -19 -60 28 16
-88 -7 15 -32 -21 -39 23 -68
-27 -44 -95 48 16 -25 34 -21
6 3 -27 4 37 17 25 5
31 29 -55 -31 18 -2 14 4
-5 33 4 -6 4 -36 15 -41
-6 -4 -23 4 -2 3 20 -7
-26 29 -21 1 11 -9 -39 -17
-16 19 -9 -21 -18 1 16 -94
51 -3 19 -6 6 -8 17 18
-58 7 -38 -3 7 13 6 -5
21 -65 14 5 10 -77 8 -20
18 24 -19 -10 -58 -24 70 -36
-62 51 10 -37 18 10 -7 2
40 -37 -34 -18 -17 -12 6 30
00000000: deec f706 e9a1 e080 d217 36f6 12de 4f19
00000010: a8ff e809 eae8 f6cf e709 9f19 0828 4226
00000020: ede9 3925 fdfd 3f1d e20e e5ff fd06 1e0e
00000030: 2227 d706 e53d 07d8 fc00 c9eb 2b21 d7c1
00000040: d710 1304 17f2 ff2a c5f1 e209 f923 1299
00000050: 43ea 292f 200f 23db c012 f4e4 1329 ecf2
00000060: 26d8 18f6 f8d6 37da 14e9 fd3b eac4 edf9
00000070: 99f4 32fc 25ea 3833 262c d4b9 fcea f2ec
00000080: 0221 f3db 03f1 0c10 ee1f 0cec edc4 1c10
00000090: a8f9 0fe0 ebd9 17bc e5d4 a130 10e7 22eb
000000a0: 0603 e504 2511 1905 1f1d c9e1 12fe 0e04
000000b0: fb21 04fa 04dc 0fd7 fafc e904 fe03 14f9
000000c0: e61d eb01 0bf7 d9ef f013 f7eb ee01 10a2
000000d0: 33fd 13fa 06f8 1112 c607 dafd 070d 06fb
000000e0: 15bf 0e05 0ab3 08ec 1218 edf6 c6e8 46dc
000000f0: c233 0adb 120a f902 28db deee eff4 061e

model/dynamic_conv2d_19/DynamicConv2D;model/tf.quantization.fake_quant_with_min_max_vars_per_channel_18/FakeQuantWithMinMaxVarsPerChannel i1 [128, 3, 3, 128]
-13 6 -31 -3 -21 -5 28 10
-43 -34 49 -38 -19 13 15 -26
18 11 9 -21 24 -15 -49 -1
1 42 0 -34 23 -46 2 0
14 -52 -26 -30 0 -25 7 15
-26 24 -35 -5 -27 16 -11 32
-25 -100 -17 2 -17 -19 33 23
-47 -32 20 32 -12 -17 5 11
6 -4 -5 -10 36 -95 15 50
53 -25 -9 -11 -45 117 -42 -23
-51 31 -25 -45 -28 -10 -14 5
-5 45 38 21 16 -26 -23 -10
22 13 -19 29 1 37 9 -30
38 -3 -82 -11 -28 -1 27 -47
-40 0 -87 5 20 66 5 51
38 -29 -55 -128 6 -11 -82 2
10 -6 0 11 -2 46 7 23
21 -70 18 -10 -4 -39 -14 -7
-40 -40 -4 -10 1 -1 39 -14
38 -26 -2 23 -20 -17 29 24
30 -14 14 -5 16 0 48 -22
-13 17 -2 37 -19 16 0 34
-5 -28 9 -19 2 26 24 34
21 -37 5 5 -4 -34 -8 -3
-5 -30 -24 -26 -2 -7 5 23
-10 -7 25 -28 6 7 -50 -13
38 -1 -4 3 26 -24 4 26
19 0 18 -2 -15 -59 16 -30
-58 27 -6 2 -27 19 6 5
-27 -23 -49 26 -32 -7 -1 0
-10 -7 -14 -11 1 34 -12 17
27 -54 19 -54 -37 25 -6 -4
00000000: f306 e1fd ebfb 1c0a d5de 31da ed0d 0fe6
00000010: 120b 09eb 18f1 cfff 012a 00de 17d2 0200
00000020: 0ecc e6e2 00e7 070f e618 ddfb e510 f520
00000030: e79c ef02 efed 2117 d1e0 1420 f4ef 050b
00000040: 06fc fbf6 24a1 0f32 35e7 f7f5 d375 d6e9
00000050: cd1f e7d3 e4f6 f205 fb2d 2615 10e6 e9f6
00000060: 160d ed1d 0125 09e2 26fd aef5 e4ff 1bd1
00000070: d800 a905 1442 0533 26e3 c980 06f5 ae02
00000080: 0afa 000b fe2e 0717 15ba 12f6 fcd9 f2f9
00000090: d8d8 fcf6 01ff 27f2 26e6 fe17 ecef 1d18
000000a0: 1ef2 0efb 1000 30ea f311 fe25 ed10 0022
000000b0: fbe4 09ed 021a 1822 15db 0505 fcde f8fd
000000c0: fbe2 e8e6 fef9 0517 f6f9 19e4 0607 cef3
000000d0: 26ff fc03 1ae8 041a 1300 12fe f1c5 10e2
000000e0: c61b fa02 e513 0605 e5e9 cf1a e0f9 ff00
000000f0: f6f9 f2f5 0122 f411 1bca 13ca db19 fafc

model/dynamic_conv2d_20/DynamicConv2D;model/tf.quantization.fake_quant_with_min_max_vars_per_channel_19/FakeQuantWithMinMaxVarsPerChannel i1 [64, 1, 1, 128]
14 17 3 33 8 -13 -15 -49
-29 53 -22 42 -77 -4 3 -45
-10 -9 1 -20 47 -37 68 11
25 -20 13 41 -31 23 -17 -1
34 -4 16 -30 80 22 1 14
-3 27 -71 -60 40 -74 57 23
18 -1 10 -70 -15 50 -42 -6
-6 -48 12 -37 -55 39 16 45
27 -10 40 20 62 -102 -19 -47
53 -17 -6 32 -83 -6 -24 -56
-103 57 -39 -59 16 10 29 44
115 -9 -85 -49 -127 13 -28 27
0 -14 20 -18 -8 -41 29 -43
62 18 -12 16 3 -54 -55 -51
-49 -35 -9 -67 36 9 54 -80
6 20 -58 -91 -1 -12 7 -13
-43 -32 79 -56 52 33 16 10
-13 -85 6 16 -34 18 -10 16
-13 -45 5 -7 -26 -7 -81 127
0 -33 4 47 -35 -91 11 21
48 7 33 -103 -39 -60 38 29
-10 3 -16 26 23 57 46 36
-16 -49 -5 -11 34 -2 57 16
6 -52 -40 53 -97 29 32 -40
50 24 43 22 6 9 -26 -18
49 34 93 -16 41 -36 -13 2
56 -86 2 -61 -58 -96 -35 17
-23 52 -1 2 -20 -41 39 -21
6 -70 -30 19 -15 51 -7 37
67 7 -81 76 -5 -22 -4 -9
-42 54 -4 -21 35 -52 7 32
-31 -8 -25 -20 37 -23 -68 19
00000000: 0e11 0321 08f3 f1cf e335 ea2a b3fc 03d3
00000010: f6f7 01ec 2fdb 440b 19ec 0d29 e117 efff
00000020: 22fc 10e2 5016 010e fd1b b9c4 28b6 3917
00000030: 12ff 0aba f132 d6fa fad0 0cdb c927 102d
00000040: 1bf6 2814 3e9a edd1 35ef fa20 adfa e8c8
00000050: 9939 d9c5 100a 1d2c 73f7 abcf 810d e41b
00000060: 00f2 14ee f8d7 1dd5 3e12 f410 03ca c9cd
00000070: cfdd f7bd 2409 36b0 0614 c6a5 fff4 07f3
00000080: d5e0 4fc8 3421 100a f3ab 0610 de12 f610
00000090: f3d3 05f9 e6f9 af7f 00df 042f dda5 0b15
000000a0: 3007 2199 d9c4 261d f603 f01a 1739 2e24
000000b0: f0cf fbf5 22fe 3910 06cc d835 9f1d 20d8
000000c0: 3218 2b16 0609 e6ee 3122 5df0 29dc f302
000000d0: 38aa 02c3 c6a0 dd11 e934 ff02 ecd7 27eb
000000e0: 06ba e213 f133 f925 4307 af4c fbea fcf7
000000f0: d636 fceb 23cc 0720 e1f8 e7ec 25e9 bc13

model/dynamic_conv2d_7/DynamicConv2D;model/tf.quantization.fake_quant_with_min_max_vars_per_channel_6/FakeQuantWithMinMaxVarsPerChannel i1 [64, 1, 1, 64]
21 6 0 6 -11 -126 -15 4
3 3 -12 -45 11 6 10 34
-19 -7 0 33 -2 17 -4 -11
12 2 -14 -5 -16 16 5 7
-1 -3 4 1 -1 -5 7 7
-19 0 11 -7 9 -1 -46 -23
2 2 -84 -4 4 -26 -10 2
7 6 1 -57 14 6 -1 -2
1 -5 -107 -10 2 5 -4 54
2 5 24 -38 5 -33 4 4
2 -19 1 2 5 3 1 -26
1 35 16 3 6 -3 -5 -18
-12 28 -1 -81 32 -15 -9 7
1 3 5 3 -13 -16 5 4
12 -30 -1 -4 34 3 3 -6
-2 11 2 -2 -6 4 -3 -127
22 2 -1 5 -4 2 4 -9
-30 -1 -3 16 -5 0 0 -1
-10 10 4 9 4 8 -7 13
-2 2 14 -89 -1 1 -2 -3
16 2 -126 3 -1 0 -3 15
-5 -1 -2 -8 5 1 2 14
19 5 6 -1 -74 -4 -4 -4
-23 2 -60 6 4 1 8 14
-25 4 -38 -60 -35 1 4 0
8 8 1 5 -40 -8 0 -4
125 21 127 121 -32 16 6 5
-24 -5 -18 26 1 -3 -18 3
-38 3 -37 -9 -32 -7 3 26
10 8 -2 1 3 -1 -94 -40
-17 -45 20 3 -7 4 0 32
-72 -25 -12 41 -2 -2 -20 29
00000000: 1506 0006 f582 f104 0303 f4d3 0b06 0a22
00000010: edf9 0021 fe11 fcf5 0c02 f2fb f010 0507
00000020: fffd 0401 fffb 0707 ed00 0bf9 09ff d2e9
00000030: 0202 acfc 04e6 f602 0706 01c7 0e06 fffe
00000040: 01fb 95f6 0205 fc36 0205 18da 05df 0404
00000050: 02ed 0102 0503 01e6 0123 1003 06fd fbee
00000060: f41c ffaf 20f1 f707 0103 0503 f3f0 0504
00000070: 0ce2 fffc 2203 03fa fe0b 02fe fa04 fd81
00000080: 1602 ff05 fc02 04f7 e2ff fd10 fb00 00ff
00000090: f60a 0409 0408 f90d fe02 0ea7 ff01 fefd
000000a0: 1002 8203 ff00 fd0f fbff fef8 0501 020e
000000b0: 1305 06ff b6fc fcfc e902 c406 0401 080e
000000c0: e704 dac4 dd01 0400 0808 0105 d8f8 00fc
000000d0: 7d15 7f79 e010 0605 e8fb ee1a 01fd ee03
000000e0: da03 dbf7 e0f9 031a 0a08 fe01 03ff a2d8
000000f0: efd3 1403 f904 0020 b8e7 f429 fefe ec1d

model/dynamic_conv2d_9/DynamicConv2D;model/tf.quantization.fake_quant_with_min_max_vars_per_channel_8/FakeQuantWithMinMaxVarsPerChannel i1 [64, 1, 1, 64]
9 2 5 2 5 4 -12 0
-9 13 -2 26 -24 0 -1 50
41 -3 9 -1 0 -11 -85 6
-1 -127 -5 -2 5 19 0 0
1 -44 20 -5 2 6 -13 -43
-1 -4 -9 0 1 -2 0 5
-4 1 -1 16 11 3 -2 7
5 -7 -7 20 6 41 -3 2
68 -5 -11 -41 9 51 -24 -8
18 15 3 -40 7 69 -20 19
32 -13 -38 -11 0 -3 23 -54
16 -42 -35 4 -1 -41 12 29
8 -44 -43 0 -4 -59 31 14
-3 -14 -104 8 14 2 13 -11
16 -27 -9 -6 18 -1 -40 -40
-127 -26 14 10 -7 52 17 29
1 -21 17 13 -39 -30 -26 5
-16 60 -18 16 4 -14 -3 7
44 -1 4 -2 3 -6 -2 -50
-2 3 0 -9 -6 -10 0 -14
-2 25 -89 6 18 -14 1 5
-6 11 7 15 1 -8 -30 2
-4 -17 26 6 -1 5 -64 -90
23 -19 18 11 -126 -3 78 -34
16 -41 0 -54 -28 -6 29 34
-17 8 -112 118 11 39 -33 -41
126 -106 17 -3 13 -27 34 8
3 -36 60 54 14 10 40 0
-79 -30 -17 13 -8 -27 36 -35
18 15 -40 -52 90 -40 -17 13
-33 -69 9 7 -58 -21 -100 -6
34 -104 -20 22 -6 27 -1 41
00000000: 0902 0502 0504 f400 f70d fe1a e800 ff32
00000010: 29fd 09ff 00f5 ab06 ff81 fbfe 0513 0000
00000020: 01d4 14fb 0206 f3d5 fffc f700 01fe 0005
00000030: fc01 ff10 0b03 fe07 05f9 f914 0629 fd02
00000040: 44fb f5d7 0933 e8f8 120f 03d8 0745 ec13
00000050: 20f3 daf5 00fd 17ca 10d6 dd04 ffd7 0c1d
00000060: 08d4 d500 fcc5 1f0e fdf2 9808 0e02 0df5
00000070: 10e5 f7fa 12ff d8d8 81e6 0e0a f934 111d
00000080: 01eb 110d d9e2 e605 f03c ee10 04f2 fd07
00000090: 2cff 04fe 03fa fece fe03 00f7 faf6 00f2
000000a0: fe19 a706 12f2 0105 fa0b 070f 01f8 e202
000000b0: fcef 1a06 ff05 c0a6 17ed 120b 82fd 4ede
000000c0: 10d7 00ca e4fa 1d22 ef08 9076 0b27 dfd7
000000d0: 7e96 11fd 0de5 2208 03dc 3c36 0e0a 2800
000000e0: b1e2 ef0d f8e5 24dd 120f d8cc 5ad8 ef0d
000000f0: dfbb 0907 c6eb 9cfa 2298 ec16 fa1b ff29

model/dynamic_conv2d_11/DynamicConv2D;model/tf.quantization.fake_quant_with_min_max_vars_per_channel_10/FakeQuantWithMinMaxVarsPerChannel i1 [65, 1, 1, 64]
22 -48 -42 -127 -4 -20 -12 -82
20 16 63 -4 5 18 10 16
24 -7 6 40 -113 -10 12 4
-17 44 -15 -4 -12 17 22 -34
-12 -11 -22 2 -28 16 -6 -26
-13 14 17 -15 12 -43 50 22
-36 -11 -12 8 -1 50 13 -53
30 27 -24 42 6 -72 23 -64
15 -29 -15 -119 -8 -22 -46 -41
3 5 90 -10 2 4 2 2
3 12 -9 -126 -54 0 3 -4
-18 15 -7 -24 -88 17 12 -17
23 -9 -9 -5 8 32 -9 -13
3 -44 4 -8 6 5 21 -37
-21 2 19 8 2 60 3 15
35 25 9 27 -1 -45 5 -47
12 5 -5 -32 -24 -37 -59 4
-17 15 119 -12 9 -16 -23 2
3 15 -19 -126 -10 7 2 -5
14 -64 -7 -33 -53 14 -3 -3
23 -14 6 2 17 19 -25 -13
15 -105 21 -7 -10 -2 -13 -46
1 12 35 7 3 -32 -19 23
15 -14 18 21 -11 6 -24 -30
21 -18 -12 28 -6 -21 -21 19
3 -9 86 -10 -2 -17 -7 4
6 14 -32 -25 4 12 5 -5
39 -78 -7 -5 -21 21 -8 2
10 -28 -6 5 0 -63 -38 -14
1 -80 17 1 -8 -5 15 -25
-18 7 23 9 1 -128 -4 -31
17 -33 -6 9 -29 29 -14 -14
00000000: 16d0 d681 fcec f4ae 1410 3ffc 0512 0a10
00000010: 18f9 0628 8ff6 0c04 ef2c f1fc f411 16de
00000020: f4f5 ea02 e410 fae6 f30e 11f1 0cd5 3216
00000030: dcf5 f408 ff32 0dcb 1e1b e82a 06b8 17c0
00000040: 0fe3 f189 f8ea d2d7 0305 5af6 0204 0202
00000050: 030c f782 ca00 03fc ee0f f9e8 a811 0cef
00000060: 17f7 f7fb 0820 f7f3 03d4 04f8 0605 15db
00000070: eb02 1308 023c 030f 2319 091b ffd3 05d1
00000080: 0c05 fbe0 e8db c504 ef0f 77f4 09f0 e902
00000090: 030f ed82 f607 02fb 0ec0 f9df cb0e fdfd
000000a0: 17f2 0602 1113 e7f3 0f97 15f9 f6fe f3d2
000000b0: 010c 2307 03e0 ed17 0ff2 1215 f506 e8e2
000000c0: 15ee f41c faeb eb13 03f7 56f6 feef f904
000000d0: 060e e0e7 040c 05fb 27b2 f9fb eb15 f802
000000e0: 0ae4 fa05 00c1 daf2 01b0 1101 f8fb 0fe7
000000f0: ee07 1709 0180 fce1 11df fa09 e31d f2f2

model/dynamic_conv2d_21/DynamicConv2D;model/tf.quantization.fake_quant_with_min_max_vars_per_channel_20/FakeQuantWithMinMaxVarsPerChannel i1 [64, 3, 3, 64]
-7 -6 -9 -10 40 19 -16 -17
-34 71 -46 -21 4 14 -4 18
34 34 60 -21 -9 39 43 20
-11 29 -40 -33 2 -23 24 -69
-5 -54 -16 32 42 53 -31 -49
34 -8 26 -60 6 -116 -39 10
13 -57 -24 -38 59 52 -13 -54
30 20 25 51 44 -5 -38 19
-45 5 -37 -27 29 69 1 -23
-69 41 57 -9 4 20 29 -5
-49 5 24 -16 23 2 1 35
25 -78 40 -16 28 -4 -3 -9
7 -7 -14 -69 44 23 -47 17
-12 17 55 -53 60 -102 26 39
50 34 16 48 31 54 -44 -19
50 -30 2 8 -22 14 68 -45
5 28 -3 18 20 26 21 8
0 20 4 -3 -39 -13 4 -8
-18 -5 68 -4 90 17 -2 69
53 -25 -28 8 20 -69 18 9
-66 -12 -13 5 23 -5 -54 -42
17 10 -14 -51 -19 -82 7 9
-35 -42 -8 18 17 11 -5 29
-14 -70 9 -4 44 -5 -35 43
5 -19 -41 35 27 -49 -14 -24
21 -5 -18 -8 -71 -9 1 -28
39 -18 5 19 -17 -9 24 -61
-43 98 -49 -1 -6 40 -14 14
17 -10 -51 7 -15 7 83 18
4 -27 -57 2 -19 -27 -5 17
-31 -10 -20 -14 -23 -36 20 61
-40 20 17 -10 54 -16 11 4
00000000: f9fa f7f6 2813 f0ef de47 d2eb 040e fc12
00000010: 2222 3ceb f727 2b14 f51d d8df 02e9 18bb
00000020: fbca f020 2a35 e1cf 22f8 1ac4 068c d90a
00000030: 0dc7 e8da 3b34 f3ca 1e14 1933 2cfb da13
00000040: d305 dbe5 1d45 01e9 bb29 39f7 0414 1dfb
00000050: cf05 18f0 1702 0123 19b2 28f0 1cfc fdf7
00000060: 07f9 f2bb 2c17 d111 f411 37cb 3c9a 1a27
00000070: 3222 1030 1f36 d4ed 32e2 0208 ea0e 44d3
00000080: 051c fd12 141a 1508 0014 04fd d9f3 04f8
00000090: eefb 44fc 5a11 fe45 35e7 e408 14bb 1209
000000a0: bef4 f305 17fb cad6 110a f2cd edae 0709
000000b0: ddd6 f812 110b fb1d f2ba 09fc 2cfb dd2b
000000c0: 05ed d723 1bcf f2e8 15fb eef8 b9f7 01e4
000000d0: 27ee 0513 eff7 18c3 d562 cfff fa28 f20e
000000e0: 11f6 cd07 f107 5312 04e5 c702 ede5 fb11
000000f0: e1f6 ecf2 e9dc 143d d814 11f6 36f0 0b04

model/dynamic_conv2d_22/DynamicConv2D;model/tf.quantization.fake_quant_with_min_max_vars_per_channel_21/FakeQuantWithMinMaxVarsPerChannel i1 [64, 3, 3, 64]
-58 -15 2 18 7 15 -1 12
13 45 -17 4 -8 26 4 28
-8 -48 2 6 -39 2 -33 9
38 44 17 -9 21 -24 -24 -8
15 -43 -39 -3 -8 -8 -16 -20
-7 24 -27 51 -11 -4 19 -16
33 -8 29 13 -5 11 9 10
12 19 1 21 14 -7 28 -16
-51 -8 29 6 31 -14 -1 52
-3 18 26 15 -1 34 5 -26
-5 -50 18 -3 -15 5 -3 5
29 20 11 10 22 20 -30 24
19 -29 -40 12 62 1 -39 18
-26 -13 -13 71 -20 -3 -5 -5
-20 -12 14 30 17 49 -26 -5
2 4 -12 14 10 2 28 -11
-5 -3 -18 0 25 2 -23 53
1 -17 24 11 -5 40 26 -29
2 -9 26 6 13 -5 35 15
14 -25 -5 15 4 -4 -28 0
3 -14 -52 23 14 21 -19 -2
-21 -8 5 17 -24 -21 1 2
-37 -17 19 9 52 -12 4 -17
13 -9 -56 20 10 12 37 -4
-40 4 16 17 2 -11 13 41
-6 69 -10 51 -37 -26 14 0
-25 -43 -34 -6 -51 22 -51 3
-19 54 35 -26 9 -43 -81 16
5 38 23 -7 6 -15 -116 15
19 34 -6 55 66 -3 32 -7
34 40 32 -15 -30 5 -15 7
0 45 23 -5 31 -26 38 30
00000000: c6f1 0212 070f ff0c 0d2d ef04 f81a 041c
00000010: f8d0 0206 d902 df09 262c 11f7 15e8 e8f8
00000020: 0fd5 d9fd f8f8 f0ec f918 e533 f5fc 13f0
00000030: 21f8 1d0d fb0b 090a 0c13 0115 0ef9 1cf0
00000040: cdf8 1d06 1ff2 ff34 fd12 1a0f ff22 05e6
00000050: fbce 12fd f105 fd05 1d14 0b0a 1614 e218
00000060: 13e3 d80c 3e01 d912 e6f3 f347 ecfd fbfb
00000070: ecf4 0e1e 1131 e6fb 0204 f40e 0a02 1cf5
00000080: fbfd ee00 1902 e935 01ef 180b fb28 1ae3
00000090: 02f7 1a06 0dfb 230f 0ee7 fb0f 04fc e400
000000a0: 03f2 cc17 0e15 edfe ebf8 0511 e8eb 0102
000000b0: dbef 1309 34f4 04ef 0df7 c814 0a0c 25fc
000000c0: d804 1011 02f5 0d29 fa45 f633 dbe6 0e00
000000d0: e7d5 defa cd16 cd03 ed36 23e6 09d5 af10
000000e0: 0526 17f9 06f1 8c0f 1322 fa37 42fd 20f9
000000f0: 2228 20f1 e205 f107 002d 17fb 1fe6 261e

model/dynamic_conv2d_23/DynamicConv2D;model/tf.quantization.fake_quant_with_min_max_vars_per_channel_22/FakeQuantWithMinMaxVarsPerChannel i1 [64, 1, 1, 64]
24 72 -9 -2 34 120 41 4
-4 -9 32 -10 -100 -12 -39 24
2 51 -66 -20 0 -63 47 -14
-37 -26 -15 -32 -50 -23 -11 -58
25 -12 30 91 52 -35 126 -42
-31 -35 -85 121 32 -97 -16 -39
-118 59 20 11 67 63 33 -8
48 25 -29 26 10 -52 48 55
27 78 26 -24 30 35 -21 -37
-11 -15 -37 -35 13 18 41 1
6 85 22 -14 -65 88 18 -28
8 20 13 -59 39 22 34 -38
37 -19 18 -126 -16 9 -33 19
-27 23 -47 -91 -12 -47 -3 -5
76 73 3 27 40 -15 6 32
-35 -31 -10 28 -27 -21 -2 -1
8 95 26 47 8 -101 1 30
10 21 37 39 -65 26 -37 -64
-36 -39 -89 -31 13 100 -18 -17
-14 -4 28 82 25 71 -32 -13
5 -22 -27 -127 50 34 93 37
2 50 -1 73 -35 -121 25 1
-11 -11 11 -42 -1 -28 -29 -39
-18 -41 18 20 5 -5 21 30
-10 -36 -12 -21 -1 -55 67 27
10 -19 -23 -18 16 -33 13 79
35 126 -69 3 2 -9 4 13
-2 26 61 -3 -18 34 -19 2
-17 3 -1 -88 2 -29 61 49
5 23 -29 -24 2 4 -11 -14
54 19 -13 31 -44 16 6 24
38 -36 -19 -13 -54 1 6 -53
00000000: 1848 f7fe 2278 2904 fcf7 20f6 9cf4 d918
00000010: 0233 beec 00c1 2ff2 dbe6 f1e0 cee9 f5c6
00000020: 19f4 1e5b 34dd 7ed6 e1dd ab79 209f f0d9
00000030: 8a3b 140b 433f 21f8 3019 e31a 0acc 3037
00000040: 1b4e 1ae8 1e23 ebdb f5f1 dbdd 0d12 2901
00000050: 0655 16f2 bf58 12e4 0814 0dc5 2716 22da
00000060: 25ed 1282 f009 df13 e517 d1a5 f4d1 fdfb
00000070: 4c49 031b 28f1 0620 dde1 f61c e5eb feff
00000080: 085f 1a2f 089b 011e 0a15 2527 bf1a dbc0
00000090: dcd9 a7e1 0d64 eeef f2fc 1c52 1947 e0f3
000000a0: 05ea e581 3222 5d25 0232 ff49 dd87 1901
000000b0: f5f5 0bd6 ffe4 e3d9 eed7 1214 05fb 151e
000000c0: f6dc f4eb ffc9 431b 0aed e9ee 10df 0d4f
000000d0: 237e bb03 02f7 040d fe1a 3dfd ee22 ed02
000000e0: ef03 ffa8 02e3 3d31 0517 e3e8 0204 f5f2
000000f0: 3613 f31f d410 0618 26dc edf3 ca01 06cb

model/dynamic_conv2d_24/DynamicConv2D;model/tf.quantization.fake_quant_with_min_max_vars_per_channel_23/FakeQuantWithMinMaxVarsPerChannel i1 [64, 1, 1, 64]
-71 -37 -41 15 111 47 -80 87
-17 15 66 -26 75 126 -7 92
101 45 79 19 -30 -25 -58 75
-118 10 -22 117 -31 35 21 39
13 32 -33 43 -64 -101 -72 -14
-46 -89 -35 -50 -1 27 -77 -86
-112 7 117 -58 13 22 -54 28
0 -48 -15 32 -13 27 67 21
22 -47 -54 77 -48 89 36 18
-94 -65 2 -1 2 -29 52 -96
74 58 -3 -54 2 55 -45 67
-76 67 39 -45 -13 -94 7 53
54 -49 22 -81 126 63 -2 -46
93 30 104 -57 38 34 -74 55
24 -30 88 19 29 41 46 -63
82 -43 -9 40 65 -91 -8 73
14 4 4 -75 -34 85 5 6
-92 -27 -18 64 -71 -69 -5 28
-14 -73 -16 -38 -101 14 57 -46
74 -7 47 -16 -32 28 76 -49
72 45 29 -91 30 10 51 -17
-81 126 3 -9 -71 -15 -68 59
18 24 -38 -18 -37 1 67 -1
-81 83 -25 87 12 -6 -26 0
-4 -52 75 -5 -10 79 55 17
45 106 -127 -20 40 1 2 -17
-15 19 -59 -92 46 -58 50 4
-11 15 -85 -114 23 -58 26 -6
-24 72 -60 -16 8 -77 -23 57
29 37 19 -4 -30 8 -16 49
-80 17 -6 22 -14 8 -57 23
-29 -79 -12 10 16 -10 23 24
00000000: b9db d70f 6f2f b057 ef0f 42e6 4b7e f95c
00000010: 652d 4f13 e2e7 c64b 8a0a ea75 e123 1527
00000020: 0d20 df2b c09b b8f2 d2a7 ddce ff1b b3aa
00000030: 9007 75c6 0d16 ca1c 00d0 f120 f31b 4315
00000040: 16d1 ca4d d059 2412 a2bf 02ff 02e3 34a0
00000050: 4a3a fdca 0237 d343 b443 27d3 f3a2 0735
00000060: 36cf 16af 7e3f fed2 5d1e 68c7 2622 b637
00000070: 18e2 5813 1d29 2ec1 52d5 f728 41a5 f849
00000080: 0e04 04b5 de55 0506 a4e5 ee40 b9bb fb1c
00000090: f2b7 f0da 9b0e 39d2 4af9 2ff0 e01c 4ccf
000000a0: 482d 1da5 1e0a 33ef af7e 03f7 b9f1 bc3b
000000b0: 1218 daee db01 43ff af53 e757 0cfa e600
000000c0: fccc 4bfb f64f 3711 2d6a 81ec 2801 02ef
000000d0: f113 c5a4 2ec6 3204 f50f ab8e 17c6 1afa
000000e0: e848 c4f0 08b3 e939 1d25 13fc e208 f031
000000f0: b011 fa16 f208 c717 e3b1 f40a 10f6 1718

model/dynamic_conv2d_25/DynamicConv2D;model/tf.quantization.fake_quant_with_min_max_vars_per_channel_24/FakeQuantWithMinMaxVarsPerChannel i1 [64, 1, 1, 64]
-101 -45 -50 17 -79 -39 3 -33
-53 89 -69 -39 15 -64 -10 -10
-26 -63 -21 7 -17 -2 -26 7
-10 -43 -43 -16 20 -128 -42 -32
-13 10 -48 -67 -43 -52 -11 0
3 -20 -106 -46 -83 -10 -35 -94
-13 32 -15 -22 -20 -11 3 -88
-36 8 -31 -49 -33 -19 15 -1
17 -16 -1 1 -24 -25 -41 -19
-11 -64 -34 8 -24 -23 -24 -24
-6 -32 -23 -56 -8 -3 -24 -47
-18 -27 -22 -51 -23 12 -8 -14
-39 -41 -5 -57 -78 4 -86 -19
127 -11 45 30 -5 -11 -62 -21
20 46 -47 -114 -9 -33 -55 -46
-36 10 -36 -8 7 -14 8 3
0 7 1 -2 2 6 3 -10
-14 -126 0 11 11 -9 -11 12
5 4 4 7 -6 27 -3 -6
7 -3 -1 14 15 12 -28 13
-19 -1 0 -4 -6 12 8 9
101 -12 -12 1 1 -7 1 2
41 67 4 -117 9 5 -6 -25
-1 -24 -1 -2 -3 -3 36 -1
80 -59 17 -21 57 -81 -63 -43
-4 -118 -21 36 11 67 -44 -20
-85 51 -37 24 -39 -63 -30 48
-22 -70 -1 -36 42 68 -36 -17
-40 -128 66 -126 -30 69 -95 -10
94 11 45 22 50 -23 -88 4
40 55 -81 30 22 -82 -63 92
-59 12 -35 -42 26 6 6 -21
00000000: 9bd3 ce11 b1d9 03df cb59 bbd9 0fc0 f6f6
00000010: e6c1 eb07 effe e607 f6d5 d5f0 1480 d6e0
00000020: f30a d0bd d5cc f500 03ec 96d2 adf6 dda2
00000030: f320 f1ea ecf5 03a8 dc08 e1cf dfed 0fff
00000040: 11f0 ff01 e8e7 d7ed f5c0 de08 e8e9 e8e8
00000050: fae0 e9c8 f8fd e8d1 eee5 eacd e90c f8f2
00000060: d9d7 fbc7 b204 aaed 7ff5 2d1e fbf5 c2eb
00000070: 142e d18e f7df c9d2 dc0a dcf8 07f2 0803
00000080: 0007 01fe 0206 03f6 f282 000b 0bf7 f50c
00000090: 0504 0407 fa1b fdfa 07fd ff0e 0f0c e40d
000000a0: edff 00fc fa0c 0809 65f4 f401 01f9 0102
000000b0: 2943 048b 0905 fae7 ffe8 fffe fdfd 24ff
000000c0: 50c5 11eb 39af c1d5 fc8a eb24 0b43 d4ec
000000d0: ab33 db18 d9c1 e230 eaba ffdc 2a44 dcef
000000e0: d880 4282 e245 a1f6 5e0b 2d16 32e9 a804
000000f0: 2837 af1e 16ae c15c c50c ddd6 1a06 06eb

model/dynamic_conv2d_26/DynamicConv2D;model/tf.quantization.fake_quant_with_min_max_vars_43/FakeQuantWithMinMaxVars i1 [1, 1, 1, 64] scale=0.0021664693 zero_point=0
-0.06282761 -0.18414989 -0.21664694 -0.09749112 -0.093158185 -0.15598579 -0.080159366 -0.03033057
0.11915582 0.11265641 -0.1343211 -0.08882524 -0.1278217 -0.08882524 -0.06716055 -0.051995263
-0.13865404 -0.051995263 -0.16031873 0.1343211 -0.051995263 0.11482287 -0.11915582 -0.18848284
-0.17331755 -0.06716055 -0.16681814 -0.14515345 -0.10832347 -0.045495857 -0.10182406 -0.08882524
0.16681814 0.13648757 -0.14515345 -0.07582643 -0.17981696 -0.14298698 -0.045495857 -0.19931518
0.19281577 -0.09099171 -0.25997633 -0.04116292 -0.07582643 -0.086658776 -0.077992894 -0.14948638
-0.038996447 -0.07582643 -0.12565522 -0.12565522 0.18848284 -0.13648757 -0.12998816 -0.15598579
-0.054161735 -0.056328204 -0.10832347 -0.27297515 -0.11482287 -0.12565522 0.1343211 -0.1689846
00000000: e3ab 9cd3 d5b8 dbf2 3734 c2d7 c5d7 e1e8
00000010: c0e8 b63e e835 c9a9 b0e1 b3bd ceeb d1d7
00000020: 4d3f bddd adbe eba4 59d6 88ed ddd8 dcbb
00000030: eedd c6c6 57c1 c4b8 e7e6 ce82 cbc6 3eb2
